[convolutional]
batch_normalize=1
filters=32
size=3
stride=1
pad=1
activation=leaky

[convolutional]
batch_normalize=1
filters=32
size=3
stride=1
pad=1
activation=leaky

# Downsample

[convolutional]
batch_normalize=1
filters=64
size=3
stride=2
pad=1
activation=leaky

[convolutional]
batch_normalize=1
filters=64
size=3
stride=1
pad=1
activation=leaky

# Downsample

[convolutional]
batch_normalize=1
filters=128
size=3
stride=2
pad=1
activation=leaky

[convolutional]
batch_normalize=1
filters=64
size=3
stride=1
pad=1
activation=leaky

[latent]
repsize=3
alpha=0.99999
gamma=1.0

[convolutional]
batch_normalize=1
filters=64
size=3
stride=1
pad=1
activation=relu

[convolutional]
batch_normalize=1
filters=128
size=3
stride=1
pad=1
activation=relu

[convtranspose2d]
batch_normalize=1
filters=64
size=3
stride=2
pad=1
out_pad=1

[convolutional]
batch_normalize=1
filters=64
size=3
stride=1
pad=1
activation=relu

[convolutional]
batch_normalize=1
filters=64
size=3
stride=1
pad=1
activation=relu

[convtranspose2d]
batch_normalize=1
filters=32
size=3
stride=2
pad=1
out_pad=1

[convolutional]
batch_normalize=1
filters=32
size=3
stride=1
pad=1
activation=relu

[convolutional]
batch_normalize=1
filters=32
size=3
stride=1
pad=1
activation=relu

[convolutional]
batch_normalize=1
filters=1
size=1
stride=1
pad=1
activation=sigmoid

[reconstruction]
loss=mse
